HeadPose/app/src/main/assets/fsanet.onnx (onnx, 986796 bytes, 92 tensors)

msms.s0_conv0.conv.depthwise.weight f4 [3, 1, 3, 3]
0.032698188 -0.24985993 0.17529549 0.26683164 -0.3705889 0.1589218 0.07505787 -0.1320973
0.010942154 0.124440596 -0.014938416 -0.1386695 -0.031898193 -0.25021335 -0.3176234 0.15895636
-0.1375344 -0.096374676 -0.07410832 0.1333725 0.18711367 -0.050835125 0.19570208 0.44006816
-0.0962376 -0.018719262 0.07286537
00000000: 89ee 053d 48db 7fbe a980 333e 289e 883e
00000010: d4bd bdbe 65bc 223e f1b7 993d 8444 07be
00000020: b846 333c b6da fe3d 42c0 74bc 61ff 0dbe
00000030: aea7 02bd f71b 80be 899f a2be 75c5 223e
00000040: d1d5 0cbe 1660 c5bd 1ac6 97bd cd92 083e
00000050: ba9a 3f3e 7e38 50bd 2066 483e 9d50 e13e
00000060: 3818 c5bd 2359 99bc 703a 953d

msms.s0_conv0.conv.depthwise.bias f4 [3]
-0.11327468 0.07472372 0.16127689
00000000: 8efc e7bd c008 993d c525 253e

msms.s0_conv1_0.conv.depthwise.weight f4 [16, 1, 3, 3]
-0.056927346 -0.091619134 -0.07460557 0.08116056 0.28866452 0.1040059 0.14411044 0.24134219
0.0778085 -0.010924692 -0.049347486 0.21012947 -0.20695598 0.007137327 0.25510174 -0.2978146
-0.07603997 0.062225875 -0.04676158 -0.17298634 -0.032695957 -0.12377345 -0.28609395 0.25119668
0.106540814 0.047313113 0.3235116 0.022812275 -0.04547406 0.018446745 0.12585847 -0.3483283
-0.12971857 -0.17079385 0.3744242 0.10258533 -0.06470994 -0.006559272 -0.036831513 0.15605487
0.21569112 0.08490391 -0.081121504 0.19558802 -0.34337565 0.011407592 0.19936843 0.008556169
0.23652107 -0.08153576 0.121933445 -0.24869601 -0.33263552 0.08590683 0.0064914464 -0.086900115
-0.07195121 -0.14065465 0.35662046 0.16798925 0.18850324 -0.34551418 -0.13541427 -0.26021773
0.309376 -0.10267466 -0.1729328 0.4996433 0.03137863 -0.3833044 0.44807315 0.006152279
0.15821293 0.12658668 0.022371164 0.14020509 -0.015328846 0.18800545 -0.23485623 -0.41087082
0.1164836 0.11533564 -0.08579042 0.07069711 0.29877844 0.10399093 -0.1372576 0.13912079
-0.116531536 -0.34085357 -0.051534917 0.13596565 0.029905688 0.033621263 -0.4299063 -0.06837472
0.06105827 0.33224878 -0.029043177 -0.008377889 -0.046835076 0.030042669 0.009782722 -0.39022624
-0.18783288 -0.030581003 -0.13635698 0.09860646 -0.12743926 0.09347327 0.12435657 -0.22031935
-0.21081497 0.24824938 -0.15735072 -0.04296782 0.20275365 0.045313615 0.11849649 0.090615936
-0.09155266 0.04652705 -0.121059015 -0.27056122 -0.046431422 -0.22999954 0.1166958 -0.40062302
-0.106402904 0.09371855 -0.12495873 -0.0768011 0.0052366913 0.039466854 0.20654196 0.16340423
0.31420836 0.06627311 -0.056196008 0.30057517 -0.04541361 -0.08818506 0.031605445 -0.2846318
00000000: a62c 69bd d0a2 bbbd ceca 98bd 8237 a63d
00000010: d6cb 933e 0c01 d53d b091 133e 6822 773e
00000020: 105a 9f3d 7bfd 32bc 9720 4abd 2e2c 573e
00000030: 45ec 53be 3de0 e93b b29c 823e 287b 98be
00000040: d8ba 9bbd 8fe0 7e3d 1289 3fbd 5523 31be
00000050: 32ec 05bd ef7c fdbd e87a 92be da9c 803e
00000060: 1232 da3d 65cb 413d 50a3 a53e cfe0 ba3c
00000070: 0243 3abd a11d 973c 0be1 003e 1658 b2be
00000080: f2d4 04be 95e4 2ebe 87b4 bf3e 4218 d23d
00000090: a586 84bd 29ef d6bb a4dc 16bd d9cc 1f3e
000000a0: 22de 5c3e 1ae2 ad3d 0823 a6bd 3a48 483e
000000b0: efce afbe e9e6 3a3c 3d27 4c3e 2d2f 0c3c
000000c0: 9432 723e 38fc a6bd 3eb8 f93d 2baa 7ebe
000000d0: 344f aabe ecef af3d 33b6 d43b b0f8 b1bd
000000e0: 285b 93bd c607 10be f596 b63e 6005 2c3e
000000f0: fe06 413e 3ce7 b0be 0aaa 0abe 423b 85be
00000100: 8866 9e3e 1847 d2bd 4c15 31be 3fd1 ff3e
00000110: e186 003d 7940 c4be d869 e53e 0f99 c93b
00000120: 9202 223e f09f 013e bb43 b73c ec91 0f3e
00000130: d725 7bbc 8084 403e 277e 70be a95d d2be
00000140: f48e ee3d 1835 ec3d e3b2 afbd a5c9 903d
00000150: 7df9 983e 32f9 d43d 428d 0cbe ae75 0e3e
00000160: 16a8 eebd 5c84 aebe 4716 53bd 943a 0b3e
00000170: c6fc f43c 73b6 093d ae1c dcbe 0c08 8cbd
00000180: 3d18 7a3d 831c aa3e f5eb edbc 6a43 09bc
00000190: 23d6 3fbd 0b1c f63c b647 203c bccb c7be
000001a0: 4357 40be 0385 fabc 2aa1 0bbe 2ff2 c93d
000001b0: 707f 02be ea6e bf3d a8ae fe3d 659b 61be
000001c0: e1df 57be 1635 7e3e 8c20 21be 06ff 2fbd
000001d0: a79e 4f3e c59a 393d 4aae f23d d994 b93d
000001e0: f67f bbbd 2693 3e3d caed f7bd 0087 8abe
000001f0: e02e 3ebd 0085 6bbe 35fe ee3d 761e cdbe
00000200: c4e9 d9bd 83ef bf3d 5dea ffbd e549 9dbd
00000210: 8d98 ab3b ffa7 213d bc7f 533e 7053 273e
00000220: ebdf a03e 32ba 873d c92d 66bd fde4 993e
00000230: 9f03 3abd 5e9a b4bd b674 013d 42bb 91be

msms.s0_conv1_0.conv.depthwise.bias f4 [16]
-0.0412744 0.22749749 -0.25879535 0.017157728 0.16105306 0.19083956 -0.01100245 -0.15505426
0.36098206 -0.08784977 0.27140394 0.072662234 -0.075073175 0.005937404 0.04833018 0.17178902
00000000: 580f 29bd 1af5 683e d380 84be 5d8e 8c3c
00000010: 18eb 243e 726b 433e 9f43 34bc 8bc6 1ebe
00000020: a4d2 b83e 95ea b3bd 75f5 8a3e f0cf 943d
00000030: f7bf 99bd 8e8e c23b def5 453d 76e9 2f3e

msms.s0_conv1_1.conv.depthwise.weight f4 [32, 1, 3, 3]
-0.1857291 -0.10822475 -0.17006359 -0.19195078 -0.15062492 -0.035033785 0.01572872 -0.32652947
-0.13647802 0.07449372 0.25818425 0.20592217 -0.060536068 0.26455516 -0.05213179 -0.02793924
-0.2651537 0.06568028 0.24337624 0.22596826 0.11341816 -0.03654179 -0.40529716 -0.17748263
-0.1064682 0.03270672 -0.0020307486 -0.05576865 -0.14345357 0.07691667 -0.13406688 0.082046084
0.32150194 0.22732924 0.05642041 -0.36443225 0.09310551 0.37549517 0.21161579 -0.12979825
0.099126816 0.18685561 -0.10672455 -0.06704519 0.0692535 -0.106026985 0.23990443 -0.003632923
-0.028441653 0.21605676 -0.14676982 0.060709186 0.17749223 -0.382417 -0.0006863188 -0.08709149
-0.13065536 0.15281111 0.340507 0.010208528 0.20648368 0.3352 -0.17777239 -0.18467234
0.090962656 0.17971358 0.33828261 0.21195531 -0.1764831 -0.12153714 -0.30828425 -0.052842688
-0.05076989 0.3219832 -0.25733492 0.06731998 -0.059630197 -0.058182485 0.0528774 -0.3526208
0.29084858 0.24686225 0.117614165 -0.03453568 0.084295586 0.28238943 -0.007345979 -0.30412343
0.13976385 0.12835024 -0.1155934 -0.0014848157 0.038592137 -0.24829344 0.13859215 0.24602894
-0.0549106 0.22918178 0.31984252 -0.04627572 -0.3375399 -0.19644181 -0.05950372 -0.07854416
-0.11657356 -0.25514552 0.05455591 0.0421965 -0.13913128 -0.2513712 -0.084198564 -0.15906858
-0.31878865 -0.17341468 -0.018095812 -0.23572412 -0.13516787 -0.053914055 -0.10679212 0.22509985
-0.11911475 0.17985082 0.056083858 -0.28320253 0.28992674 -0.18286113 -0.08525424 0.36999866
0.007110647 -0.09056936 0.1376263 0.26490334 -0.18455786 -0.31821215 0.01132467 -0.10536231
0.2904942 0.045761764 -0.06900008 0.09579534 0.32288045 -0.06435716 0.09255449 0.27006808
0.06804043 0.21435879 -0.010614171 0.27282202 0.21143225 -0.04198061 0.14346491 0.15556647
-0.07305676 0.0058010183 -0.09611452 0.052817274 0.30805436 0.2657683 -0.007239822 0.23718598
0.29538524 -0.027390514 -0.06634556 0.017708708 -0.04715412 0.037977107 -0.2593765 -0.23267391
-0.098030195 -0.22394519 -0.033863787 0.25765738 0.1595157 0.14208996 -0.07097316 0.018211778
-0.045470927 -0.043059222 -0.34505782 -0.27740043 -0.06810925 0.3842534 -0.19703552 -0.1456553
-0.2497113 0.3160444 0.110005446 -0.10120992 -0.009753117 -0.3238067 -0.22224836 0.09334013
-0.046161227 -0.27899694 -0.050645567 0.26573515 0.038970254 -0.10402273 0.3199033 -0.2501703
-0.070613794 -0.04642918 0.15999396 -0.21203163 -0.27145612 0.18687956 0.10060428 0.16660054
-0.0792439 -0.095913336 -0.02807403 0.36171898 -0.031728033 -0.27298087 -0.18693817 0.27746317
0.1811023 -0.4164213 -0.1358844 -0.0008078284 -0.09666046 -0.10670183 -0.07237795 0.22081141
-0.09255425 0.11573484 0.2178273 -0.28019637 -0.20276901 -0.05138538 -0.08394511 -0.34507784
0.035290156 0.020874353 -0.1295969 0.23738043 -0.2502705 -0.07416384 0.24585257 -0.019587703
0.15308325 -0.22606717 0.2219119 0.06937406 0.077806085 -0.2119045 0.28115144 0.22980903
0.13086863 0.087996416 0.008625831 0.08208229 -0.04696454 0.1653224 0.27538273 -0.084343635
00000000: c52f 3ebe f0a4 ddbd 2625 2ebe bf8e 44be
00000010: 6b3d 1abe 967f 0fbd 84d9 803c df2e a7be
00000020: e5c0 0bbe 2a90 983d ba30 843e 43dd 523e
00000030: abf4 77bd c673 873e 2588 55bd d5e0 e4bc
00000040: 3ac2 87be 6283 863d 9f37 793e 3964 673e
00000050: c847 e83d d8ac 15bd 1c83 cfbe 02be 35be
00000060: 000c dabd 7bf7 053d 4f16 05bb ab6d 64bd
00000070: 7ee5 12be 7d86 9d3d d448 09be c707 a83d
00000080: e79b a43e ffc8 683e 1619 673d dd96 babe
00000090: 1aae be3d e740 c03e cfb1 583e d5e9 04be
000000a0: 0003 cb3d 1457 3f3e 6792 dabd fd4e 89bd
000000b0: c7d4 8d3d ad24 d9bd 82a9 753e 5516 6ebb
000000c0: 78fe e8bc fc3d 5d3e d44a 16be 32aa 783d
000000d0: 86c0 353e 29cc c3be 13ea 33ba 065d b2bd
000000e0: 85ca 05be 847a 1c3e ef56 ae3e ab41 273c
000000f0: 7570 533e 569f ab3e f709 36be bf1a 3dbe
00000100: a14a ba3d d606 383e 6133 ad3e d00a 593e
00000110: fcb7 34be 77e8 f8bd 6fd7 9dbe 9371 58bd
00000120: 17f4 4fbd fbda a43e 67c1 83be 0fdf 893d
00000130: cb3e 74bd c250 6ebd f995 583d b78a b4be
00000140: 1bea 943e 75c9 7c3e b2df f03d 4975 0dbd
00000150: 2aa3 ac3d 5995 903e 8ab6 f0bb 11b6 9bbe
00000160: 411e 0f3e 3f6e 033e 3cbc ecbd 269e c2ba
00000170: ca12 1e3d a340 7ebe 1aeb 0d3e 03ef 7b3e
00000180: f0e9 60bd a1ae 6a3e 66c2 a33e 9c8b 3dbd
00000190: 08d2 acbe 0b28 49be 2cba 73bd c3db a0bd
000001a0: 1ebe eebd 6fa2 82be 0576 5f3d 3dd6 2c3d
000001b0: 6e78 0ebe bab3 80be 4c70 acbd e0e2 22be
000001c0: 4438 a3be 9e93 31be ab3d 94bc aa61 71be
000001d0: 7269 0abe fcd4 5cbd d4b5 dabd 9380 663e
000001e0: 6ff2 f3bd d02a 383e 30b8 653d ecff 90be
000001f0: 4771 943e f33f 3bbe c699 aebd 7770 bd3e
00000200: 6e00 e93b 6e7c b9bd e9ed 0c3e 69a1 873e
00000210: bcfc 3cbe b4ec a2be 1c8b 393c 32c8 d7bd
00000220: a8bb 943e b070 3b3d ea4f 8dbd 5930 c43d
00000230: 9650 a53e b0cd 83bd 358d bd3d 5d46 8a3e
00000240: c858 8b3d df80 5b3e 0fe7 2dbc 54af 8b3e
00000250: b281 583e dcf3 2bbd 77e8 123e d14c 1f3e
00000260: c89e 95bd 7816 be3b b1d7 c4bd ed56 583d
00000270: 4db9 9d3e c812 883e 073c edbb e2e0 723e
00000280: bc3c 973e 1262 e0bc 2ee0 87bd da11 913c
00000290: ae24 41bd e28d 1b3d ffcc 84be 1242 6ebe
000002a0: 0ec4 c8bd e351 65be c1b4 0abd abeb 833e
000002b0: 1558 233e 0880 113e 605a 91bd de30 953c
000002c0: b93f 3abd de5e 30bd 6bab b0be 6e07 8ebe
000002d0: dd7c 8bbd ddbc c43e aec3 49be aa26 15be
000002e0: 52b4 7fbe 92d0 a13e 894a e13d 2647 cfbd
000002f0: 8acb 1fbc fec9 a5be 1395 63be 1c29 bf3d
00000300: 8e13 3dbd b0d8 8ebe ba71 4fbd 700e 883e
00000310: 469f 1f3d de09 d5bd 5eca a33e 5216 80be
00000320: f79d 90bd 862c 3ebd 75d5 233e d21e 59be
00000330: 4cfc 8abe 5b5d 3f3e 9e09 ce3d 5599 2a3e
00000340: a04a a2bd 366e c4bd 82fb e5bc 3b33 b93e
00000350: 41f5 01bd 26c4 8bbe b86c 3fbe a70f 8e3e
00000360: e272 393e 2c35 d5be 4825 0bbe 72c4 53ba
00000370: ebf5 c5bd 7d86 dabd e43a 94bd 631c 623e
00000380: 158d bdbd 6306 ed3d 1f0e 5f3e e675 8fbe
00000390: aea2 4fbe 7a79 52bd 6aeb abbd 0bae b0be
000003a0: 698c 103d b100 ab3c 0db5 04be db13 733e
000003b0: 7423 80be 36e3 97bd c7c0 7b3e 6476 a0bc
000003c0: dbc1 1c3e 277e 67be e03c 633e fd13 8e3d
000003d0: cc58 9f3d 7efd 58be 15f3 8f3e 0f53 6b3e
000003e0: 6d02 063e 7737 b43d 5c53 0d3c c21a a83d
000003f0: e45d 40bd 464a 293e f7fe 8c3e 5bbc acbd

msms.s0_conv1_1.conv.depthwise.bias f4 [32]
-0.18891342 0.093049966 -0.068714306 -0.065402016 -0.040390294 0.19895278 0.026510112 0.014882945
-0.24886057 -0.0035398374 -0.12581524 -0.24857928 0.12826942 -0.115504056 -0.1758157 0.06320786
0.039796315 -0.06482515 -0.23025501 0.03109931 0.017925458 -0.06477693 -0.14460011 -0.028158655
-0.08947268 -0.19469698 0.035704404 -0.17890954 0.06978805 -0.045462172 0.14074922 0.24902262
00000000: 8572 41be fb90 be3d 16ba 8cbd 7ef1 85bd
00000010: 4b70 25bd 47ba 4b3e bc2b d93c 99d7 733c
00000020: 4ed5 7ebe 9efc 67bb b6d5 00be 918b 7ebe
00000030: 0f59 033e 648d ecbd 0809 34be 1f73 813d
00000040: 7601 233d 0cc3 84bd f8c7 6bbe fbc3 fe3c
00000050: 69d8 923c c4a9 84bd 0d12 14be fbac e6bc
00000060: 743d b7bd a55e 47be c83e 123d 1034 37be
00000070: 0aed 8e3d 8b36 3abd 9020 103e c9ff 7e3e

msms.s0_conv1_out.conv.weight f4 [64, 32, 1, 1]
-0.011495025 -0.00063541025 -0.0010657301 0.017836256 -0.026235795 -0.023247115 -0.0090115545 -0.00850183
-0.024104089 0.002140969 -0.006301018 -0.029836845 -0.011753399 0.0075413263 -0.0014545661 -0.016747227
-0.011138216 0.0079617705 -0.026875714 0.0020200626 0.008312518 -0.02423171 -0.012504155 -0.031524874
0.012623119 -0.009470263 -0.012920223 -0.023320265 -0.0049441014 -0.0071293903 -0.04063119 -0.006509105
0.31131348 0.10588525 0.03447122 0.3193661 0.17656651 -0.52132195 0.31968588 0.79234767
0.46782306 0.34733564 0.048826024 0.0020570832 0.70716304 0.5481658 0.46012825 -0.26965055
-0.14028272 -0.34703764 0.046345644 -0.09195317 -0.14867605 0.25490624 0.5910781 0.6040296
1.0360607 0.46876287 -0.18716118 -0.039870974 0.39124593 0.36022624 0.002031596 -0.22650251
-0.10138794 0.22777236 0.36443922 -0.30547598 -0.055261627 -0.028779157 0.00041639578 -0.037218355
0.36643845 0.2844796 -0.23640692 0.057875056 -0.119377 -0.35323903 -0.22407338 0.040289707
0.46025974 -0.4464201 -0.47135967 0.5329146 -0.30723706 -0.18394466 -0.10959458 0.7691432
0.44808325 0.0013098042 0.27373868 0.3753942 -0.29160717 -0.18934128 0.3837035 0.5330523
0.0009794427 -0.03547761 0.015378684 0.015016919 -0.029184524 -0.018704567 -0.031230077 -0.022102619
-8.799443e-05 -0.031605635 -0.040389307 -0.00019331733 0.008803737 0.011612999 -0.004519444 -0.002468258
-0.0028074495 -0.033399 -0.010355474 -0.031675283 -0.010834918 -0.018620122 -0.007418746 -0.002261763
-0.041613348 -0.01998716 -0.0023551323 0.01288246 -0.04088261 -0.007981609 -0.0033992953 0.010239294
-0.014468976 0.003119492 0.006645324 -0.0109652905 -0.0012864775 -0.010192724 -0.01114157 -0.022514883
0.00066893443 0.0038174912 0.00023113108 -0.03085903 -0.029475452 -0.026348555 -0.007841619 -0.0065878434
-0.00083364756 -0.006206381 0.0062534185 -0.027319092 -0.01475791 0.00015818178 -0.025190275 0.00020886751
-0.012183348 -0.012211618 -0.005204396 0.0018400664 -0.01944476 -0.002799937 0.003008666 -0.005402044
0.038927156 0.006536997 0.58548075 -0.10093304 0.282291 -0.059173804 0.18149622 0.3255148
0.117673315 -0.41117013 0.42850488 0.20715378 -0.3011785 0.42026156 -0.3093175 0.33467278
0.34793678 -0.228111 0.00066556403 0.4728277 0.34036577 -0.4856645 0.27668127 0.029615527
-0.35044923 -0.14902551 0.28738284 0.008944546 0.20873751 -0.6298051 0.5563777 0.37471724
0.29014924 0.47972855 0.19957583 0.13795054 -0.11082801 0.47867924 0.23280269 0.19418924
0.076029345 0.52561104 0.4302228 0.1499949 0.6426858 -0.35801914 0.31371722 0.2266509
0.24634507 0.5675905 -0.058431312 0.23206547 -0.28419492 0.40045506 0.14869592 0.25056958
0.56986487 0.31924772 0.059229366 0.43304795 0.66693103 0.5342836 0.22237259 0.610672
0.31774867 0.38868216 0.08299549 0.37687674 0.17743017 0.48781884 0.3970623 0.37142283
0.12366384 0.06438721 -0.075100705 0.7326124 0.13541664 0.5103569 0.83208406 0.27669895
0.6988352 -0.05511083 0.06555708 -0.05191796 0.17714955 0.6605439 0.5098092 0.7157974
0.24265361 0.5251181 0.82105786 0.5741337 0.16713604 0.6367037 0.3531691 0.5391673
00000000: a155 3cbc a991 26ba f8af 8bba 571d 923c
00000010: 73ec d6bc bc70 bebc 33a5 13bc 424b 0bbc
00000020: f075 c5bc 804f 0c3b c578 cebb 666c f4bc
00000030: 5491 40bc 3b1d f73b 24a7 beba 7b31 89bc
00000040: 107d 36bc 1672 023c 752a dcbc 0763 043b
00000050: 3a31 083c 9481 c6bc 3ade 4cbc 3a20 01bd
00000060: 33d1 4e3c 2929 1bbc 58af 53bc 240a bfbc
00000070: 2102 a2bb a99d e9bb e46c 26bd 554a d5bb
00000080: 7b64 9f3e 5eda d83d b231 0d3d f483 a33e
00000090: dacd 343e 5b75 05bf dead a33e 4cd7 4a3f
000000a0: 8186 ef3e fad5 b13e ccfd 473d 21d0 063b
000000b0: a308 353f 9854 0c3f ee95 eb3e a30f 8abe
000000c0: 46a6 0fbe ebae b1be eed4 3d3d f251 bcbd
000000d0: 893e 18be 1283 823e e550 173f afa1 1a3f
000000e0: a39d 843f b001 f03e 2ea7 3fbe bf4f 23bd
000000f0: 6351 c83e 936f b83e 8624 053b 46f0 67be
00000100: 7ba4 cfbd 283d 693e c797 ba3e 5967 9cbe
00000110: 045a 62bd 44c2 ebbc b24f da39 4672 18bd
00000120: d29d bb3e 4fa7 913e a814 72be 650e 6d3d
00000130: ee7b f4bd bfdb b4be 7e73 65be d206 253d
00000140: 2aa7 eb3e 2d91 e4be 0e56 f1be 176d 083f
00000150: 2d4e 9dbe fd5b 3cbe 2073 e0bd 92e6 443f
00000160: 2b6b e53e bcad ab3a 7a27 8c3e ab33 c03e
00000170: 894d 95be aee2 41be c974 c43e 1e76 083f
00000180: a560 803a f850 11bd e0f6 7b3c 8609 763c
00000190: 6214 efbc 523a 99bc 38d6 ffbc 8d10 b5bc
000001a0: a689 b8b8 e974 01bd 426f 25bd 3ab5 4ab9
000001b0: 8d3d 103c 7344 3e3c d817 94bb 7fc2 21bb
000001c0: 30fd 37bb 64cd 08bd 02aa 29bc f1bd 01bd
000001d0: f184 31bc 3a89 98bc f418 f3bb 163a 14bb
000001e0: c272 2abd 1dbc a3bc 9058 1abb f410 533c
000001f0: 8674 27bd 4bc5 02bc b6c6 5ebb b6c2 273c
00000200: 490f 6dbc 6470 4c3b 05c1 d93b c3a7 33bc
00000210: 069f a8ba 62ff 26bc 228b 36bc 2271 b8bc
00000220: 6e5b 2f3a e02e 7a3b c75b 7239 14cc fcbc
00000230: 8176 f1bc edd8 d7bc 227a 00bc d6de d7bb
00000240: 2489 5aba e65e cbbb 7ae9 cc3b 4acc dfbc
00000250: 29cb 71bc 99dd 2539 d65b cebc 7203 5b39
00000260: aa9c 47bc 3d13 48bc a389 aabb 622e f13a
00000270: 9e4a 9fbc 267f 37bb 0a2d 453b a103 b1bb
00000280: 1572 1f3d 4e34 d63b 11e2 153f fbb5 cebd
00000290: 7288 903e 3b60 72bd 25da 393e e0a9 a63e
000002a0: b5fe f03d e484 d2be fe64 db3e 1f20 543e
000002b0: 1134 9abe 862c d73e dd5e 9ebe 3b5a ab3e
000002c0: c524 b23e ee95 69be 3f79 2e3a 7916 f23e
000002d0: 6c44 ae3e 04a9 f8be 2ba9 8d3e 439c f23c
000002e0: 156e b3be 259a 18be d823 933e 258c 123c
000002f0: 49bf 553e e83a 21bf c56e 0e3f f0da bf3e
00000300: 718e 943e fb9e f53e 9b5d 4c3e e842 0d3e
00000310: ccf9 e2bd 7215 f53e d463 6e3e 8bd9 463e
00000320: 46b5 9b3d 728e 063f 2a46 dc3e 4398 193e
00000330: 0e87 243f 494e b7be 8b9f a03e 2c17 683e
00000340: e241 7c3e 9c4d 113f ac55 6fbd 92a2 6d3e
00000350: ff81 91be 7208 cd3e be43 183e a84a 803e
00000360: aae2 113f 7074 a33e 7e9a 723d 76b8 dd3e
00000370: febb 2a3f cfc6 083f a4b5 633e 0055 1c3f
00000380: f4af a23e 5901 c73e 8af9 a93d fdf5 c03e
00000390: 41b0 353e 64c3 f93e c04b cb3e 222b be3e
000003a0: 7843 fd3d 71dd 833d 66ce 99bd 7c8c 3b3f
000003b0: a9aa 0a3e c0a6 023f 7603 553f 7cab 8d3e
000003c0: dde6 323f e5bb 61bd ca42 863d eda7 54bd
000003d0: b166 353e 6819 293f db82 023f 803e 373f
000003e0: 307a 783e 246e 063f d930 523f 6dfa 123f
000003f0: b625 2b3e 04ff 223f 95d2 b43e de06 0a3f

msms.s0_conv1_out.conv.bias f4 [64]
-0.02290017 0.25013885 0.17123991 -0.01204118 -0.015096043 0.06580447 0.24874237 0.70957774
0.24919543 0.1750433 -0.027331617 0.31068566 -0.021891272 -0.012984535 0.60867 0.36005127
0.21983443 0.08927938 0.13115712 0.18334654 -0.030495923 0.14698026 -0.020866089 0.31083494
0.23435152 0.33445007 0.4307012 0.37254584 0.09439244 0.19047374 -0.024544803 0.30442846
-0.1698839 0.21130697 0.1941617 0.2120823 0.04974682 0.34385663 0.2846881 0.2902017
0.098247774 0.16311225 0.37531343 0.2506568 -0.030938543 -0.019466147 0.17518646 0.20184933
0.07708098 -0.03323992 0.5594878 0.22137433 -0.039328903 0.5939789 0.36116222 0.27449855
0.24738975 0.6340798 0.31624553 0.04076255 0.4117338 -0.12413403 0.37537858 0.0036165481
00000000: 2399 bbbc 3312 803e 8459 2f3e 5f48 45bc
00000010: 6555 77bc 7ec4 863d 52b6 7e3e e3a6 353f
00000020: 162d 7f3e 8d3e 333e 8ee6 dfbc 3112 9f3e
00000030: 5355 b3bc 16bd 54bc ccd1 1b3f a458 b83e
00000040: 471c 613e 1cd8 b63d 0d4e 063e 32bf 3b3e
00000050: 96d2 f9bc fe81 163e 5cef aabc c225 9f3e
00000060: d8f9 6f3e 0a3d ab3e de84 dc3e 54be be3e
00000070: d350 c13d 8c0b 433e 2f12 c9bc 0cde 9b3e
00000080: 0cf6 2dbe db60 583e 53d2 463e 1a2c 593e
00000090: 52c3 4b3d fa0d b03e a3c2 913e 5195 943e
000000a0: 2136 c93d e606 273e 1529 c03e 1756 803e
000000b0: d472 fdbc 7877 9fbc 1464 333e 97b1 4e3e
000000c0: a2dc 9d3d 9526 08bd 983a 0f3f f4af 623e
000000d0: 5817 21bd 000f 183f 41ea b83e 138b 8c3e
000000e0: bd53 7d3e 0e53 223f efea a13e a2f6 263d
000000f0: c6ce d23e fb39 febd 9f31 c03e 9c03 6d3b

msms.s0_conv2_0.conv.depthwise.weight f4 [32, 1, 3, 3]
0.16730693 0.034095008 0.03474093 -0.3471852 -0.10542611 -0.08292777 -0.27507496 -0.020226683
0.14421473 0.19814306 -0.26153353 -0.05401029 -0.0105568385 -0.3463616 -0.27258906 0.0551948
0.12983806 0.1300331 0.12986661 0.15875092 -0.13063729 0.08913328 0.41226178 0.010633394
-0.0992069 0.48942983 0.24082439 0.056569446 -0.14995301 -0.16226444 0.1617695 -0.08263919
-0.12614517 0.35165045 -0.26108393 -0.009001408 -0.16016468 0.08047768 0.2908627 -0.21750627
0.25131878 0.15026978 -0.09281383 0.29723546 0.05868975 -0.08395133 0.37506753 -0.039286334
-0.116536655 0.34000427 -0.06019175 -0.12755488 -0.064782694 0.002625755 -0.09443074 -0.21486917
0.056819838 0.14753546 0.024948917 0.010652001 0.14464937 0.34800264 0.16331059 0.18352108
0.05694124 -0.10123346 0.19241513 0.0017972182 0.008387344 0.06542562 -0.40956992 0.15042171
-0.15779416 -0.10115759 -0.050101344 -0.1833342 -0.287693 -0.28999272 -0.18791254 0.08539863
-0.11759287 0.059204694 0.17037009 0.10289264 0.09651573 0.31927583 0.13291405 -0.043399196
0.21686304 0.10496429 0.24952558 -0.10400172 -0.1238 0.3727675 -0.21625054 -0.266146
0.19125365 -0.1294419 -0.06314601 0.19034474 0.17593843 0.070325606 -0.11425531 0.13950573
-0.122200675 0.006004887 -0.09169829 -0.38833845 -0.11293603 -0.046959132 0.13400237 -0.118308716
-0.5381714 0.038623437 0.123559676 -0.031624217 0.046984516 -0.071130894 -0.3135299 0.026859222
-0.24580687 -0.29388824 -0.06136755 0.17248824 0.04337417 -0.10241564 0.20125134 -0.14124863
-0.20686273 0.20040952 0.03537266 -0.18365358 -0.085943386 -0.26654208 -0.16785693 0.08467131
0.3188465 0.09734864 0.18537009 -0.02496282 -0.12505901 -0.29266378 -0.25066605 0.09686614
0.2781832 -0.21308856 -0.099153884 0.04691485 -0.0017755611 0.005806243 -0.295377 0.14562881
0.25501677 -0.38036308 0.15001515 0.13306199 -0.17758116 -0.02953778 0.20958869 -0.11356036
0.11005034 0.07791328 -0.060003933 -0.13045885 0.1933795 -0.22240348 -0.13007377 0.30231827
-0.18790297 -0.13782041 0.20714632 -0.072226696 -0.15820237 -0.009703032 -0.2618116 -0.54324514
-0.11206415 -0.007400504 -0.30532834 -0.023463856 -0.09039259 0.36781818 0.2307652 -0.023955798
0.34910306 0.15682352 -0.078575015 0.05755435 -0.049457166 -0.20861286 0.05660138 0.12464128
-0.10472114 -0.31681612 0.05571662 0.18031605 0.018771032 -0.23929226 0.07758719 -0.027193205
-0.21231884 0.007326715 0.3836872 -0.23648542 -0.06022202 -0.09745845 0.15753593 0.10157832
0.3623273 -0.055028044 0.11536255 0.22111294 -0.034568094 -0.060119472 0.06546431 0.22086577
0.20330723 0.0431722 -0.106105775 0.1860749 0.018554734 -0.14052163 0.23163824 0.16226478
-0.20628382 -0.3989758 -0.18321589 -0.02785707 -0.29657796 -0.30415425 0.08443242 -0.1827085
-0.18584634 -0.025107652 0.15116459 0.062493436 -0.06636725 0.2747221 0.10446642 -0.017215919
0.34647653 -0.06460943 -0.18565717 -0.06639014 0.06455937 0.08100605 -0.18928874 -0.028885992
0.079900615 -0.3664652 -0.058304023 0.32209158 -0.028378794 0.09220225 0.022776261 0.3299002
00000000: 8252 2b3e 35a7 0b3d 814c 0e3d 42c2 b1be
00000010: a5e9 d7bd 09d6 a9bd a0d6 8cbe 6eb2 a5bc
00000020: 07ad 133e 04e6 4a3e b9e7 85be e539 5dbd
00000030: 97f6 2cbc 4f56 b1be cb90 8bbe f113 623d
00000040: 45f4 043e 6627 053e c1fb 043e 9a8f 223e
00000050: c8c5 05be 828b b63d fa13 d33e b037 2e3c
00000060: fd2c cbbd 8c96 fa3e ab9a 763e 5db5 673d
00000070: 488d 19be a628 26be e7a6 253e bc3e a9bd
00000080: 332c 01be 870b b43e cbac 85be a47a 13bc
00000090: 3602 24be 7bd1 a43d f5eb 943e f7b9 5ebe
000000a0: dbac 803e 52e0 193e 2d15 bebd 3f2f 983e
000000b0: aa64 703d adee abbd da08 c03e b5ea 20bd
000000c0: c5aa eebd 0a15 ae3e a08b 76bd bf9d 02be
000000d0: caac 84bd dc14 2c3b e764 c1bd aa06 5cbe
000000e0: ebbb 683d 8913 173e ac61 cc3c bb85 2e3c
000000f0: f71e 143e 672d b23e e43a 273e f3ec 3b3e
00000100: 383b 693d 7d53 cfbd 7908 453e a390 eb3a
00000110: 126b 093c defd 853d 26b3 d1be 2608 1a3e
00000120: cb94 21be b62b cfbd 1137 4dbd f6bb 3bbe
00000130: 7f4c 93be ed79 94be 256c 40be 7ae5 ae3d
00000140: 88d4 f0bd 9f80 723d 7f75 2e3e 60b9 d23d
00000150: 0aaa c53d 1f78 a33e 9f1a 083e 5bc3 31bd
00000160: 5811 5e3e 85f7 d63d a283 7f3e dbfe d4bd
00000170: db8a fdbd 62db be3e c870 5dbe 4a44 88be
00000180: ffd7 433e 6b8c 04be b252 81bd bbe9 423e
00000190: 3429 343e df06 903d b0fe e9bd 97da 0e3e
000001a0: 5944 fabd a5c4 c43b 50cc bbbd 4cd4 c6be
000001b0: 014b e7bd 3858 40bd eb37 093e d74b f2bd
000001c0: 9ac5 09bf 9c33 1e3d db0c fd3d 6588 01bd
000001d0: d672 403d 13ad 91bd fe86 a0be df07 dc3c
000001e0: ccb4 7bbe 8578 96be 8a5c 7bbd c2a0 303e
000001f0: 1da9 313d 4bbf d1bd d514 4e3e 7ba3 10be
00000200: d3d3 53be 2738 4d3e ece2 103d af0f 3cbe
00000210: 1603 b0bd 3478 88be b0e2 2bbe 2768 ad3d
00000220: d93f a33e b95e c73d a8d1 3d3e d47e ccbc
00000230: 780f 00be 07d8 95be 4d57 80be c161 c63d
00000240: 076e 8e3e e333 5abe 3111 cbbd c929 403d
00000250: f2b9 e8ba 4c42 be3b a73b 97be b81f 153e
00000260: 8f91 823e f3be c2be 929d 193e 6741 083e
00000270: d6d7 35be 37f9 f1bc 6b9e 563e 5692 e8bd
00000280: 1362 e13d ff90 9f3d afc6 75bd 0197 05be
00000290: 4705 463e bdbd 63be 0f32 05be 76c9 9a3e
000002a0: a369 40be cb20 0dbe 2a1e 543e 97eb 93bd
000002b0: cdff 21be 77f9 1ebc 2c0c 86be 1d12 0bbf
000002c0: e481 e5bd ed7f f2bb ff53 9cbe 4637 c0bc
000002d0: c01f b9bd aa52 bc3e b64d 6c3e f33e c4bc
000002e0: a3bd b23e 5896 203e f0eb a0bd 1cbe 6b3d
000002f0: 9993 4abd 9c9e 55be d9d6 673d ed43 ff3d
00000300: 0978 d6bd b935 a2be 1c37 643d c5a4 383e
00000310: b5c5 993c 0809 75be 08e6 9e3d 49c4 debc
00000320: 1c6a 59be f114 f03b a672 c43e 3c29 72be
00000330: 5dab 76bd 4c98 c7bd 1951 213e 4b08 d03d
00000340: f782 b93e 1665 61bd 3343 ec3d 6e6b 623e
00000350: 4697 0dbd d63f 76bd 2712 863d a32a 623e
00000360: c52f 503e 55d5 303d fc4d d9bd 6b8a 3e3e
00000370: 1900 983c e7e4 0fbe 9332 6d3e bd28 263e
00000380: 113c 53be 8e46 ccbe f29c 3bbe 8334 e4bc
00000390: 11d9 97be 1bba 9bbe e8ea ac3d f017 3bbe
000003a0: 814e 3ebe 90ae cdbc e4ca 1a3e 1ef9 7f3d
000003b0: 8eeb 87bd 60a8 8c3e 7ef2 d53d 6608 8dbc
000003c0: 5f65 b13e f351 84bd ea1c 3ebe 8ef7 87bd
000003d0: b437 843d 80e6 a53d e8d4 41be 51a2 ecbc
000003e0: efa2 a33d 54a1 bbbe 33d0 6ebd 30e9 a43e
000003f0: a57a e8bc 89d4 bc3d 4895 ba3c aee8 a83e

msms.s0_conv2_0.conv.depthwise.bias f4 [32]
0.09351699 -0.07584577 0.08380755 0.1149726 0.11431249 -0.08660778 0.104067296 0.0060919602
0.2096462 -0.058583755 0.10226399 0.028384738 -0.08981875 0.2791495 -0.25140008 0.05349065
-0.1818758 0.123019144 -0.08623885 0.015668448 -0.011246642 -0.15698516 -0.060347747 0.1865693
-0.1939814 -0.16585211 -0.0628648 -0.0482515 0.5258904 0.15624805 -0.005759663 0.1108867
00000000: d685 bf3d 0755 9bbd 4ba3 ab3d c176 eb3d
00000010: ab1c ea3d 6b5f b1bd 3c21 d53d 119f c73b
00000020: 7ead 563e 85f5 6fbd c86f d13d 1c87 e83c
00000030: e5f2 b7bd afec 8e3e 83b7 80be 0319 5b3d
00000040: a63d 3abe 76f1 fb3d ff9d b0bd 1e5b 803c
00000050: d643 38bc b8c0 20be 332f 77bd 060c 3f3e
00000060: 0fa3 46be 23d5 29be 43bf 80bd 5da3 45bd
00000070: c1a0 063f 7dff 1f3e 8ebb bcbb 9118 e33d

msms.s0_conv2_1.conv.depthwise.weight f4 [64, 1, 3, 3]
0.07395782 0.14928356 0.07254812 0.07489941 0.21669008 0.009294026 0.07660578 0.28710666
-0.2883519 -0.08928319 -0.23062995 -0.07567092 -0.06969936 -0.29839635 -0.12562172 0.10159586
-0.17065834 -0.31321782 0.21120042 0.3390173 0.08402729 -0.34657282 0.01620832 0.09152598
-0.11552532 -0.13899566 -0.037293755 0.14893861 -0.07188663 -0.09988224 -0.37009534 -0.1362119
0.073040284 -0.20626664 -0.22474691 0.17168123 0.11464255 0.22549076 0.289353 0.15150322
0.09651418 -0.014264955 -0.11943474 -0.3089857 -0.18821244 -0.11561927 0.105667256 -0.14905438
0.26641372 0.1321669 0.21627343 0.32073256 0.066475265 0.08425396 -0.34270528 0.18131891
0.15291072 -0.18499601 0.12727788 0.12979557 -0.2669702 0.14471398 0.090086274 0.029678755
0.20002808 0.105270684 0.14970593 0.15750086 -0.12727007 0.10870342 -0.16075908 -0.4284586
0.048192598 0.07166809 0.012303483 0.25093377 -0.21124052 -0.14642556 0.27914703 0.09435085
-0.31322214 0.15509099 0.16640662 0.11900377 -0.26518527 0.009271825 0.17014402 -0.37527508
-0.109610856 0.19647016 0.06610646 0.3534493 0.09160747 0.23506086 0.1546557 0.054266274
-0.04701452 -0.034023624 0.2558934 0.14283991 -0.005354129 -0.29635766 -0.07184924 -0.28012753
-0.2460662 -0.12040963 -0.037028316 0.033021666 -0.24524999 -0.37652266 -0.07325777 0.03211024
-0.32081047 -0.07573605 -0.049261913 -0.053413138 -0.119327866 0.0062512155 -0.33416325 0.29296574
-0.010933625 -0.26866117 -0.0025045208 0.18722083 0.019591523 0.08097068 0.24925752 0.34070075
-0.019757241 0.1358285 0.018088927 0.08197985 0.19352624 -0.14836389 -0.16168548 0.27736753
-0.35355332 0.027843457 0.026666528 0.13657546 -0.17906319 -0.2011383 0.17710201 -0.14508614
-0.018467396 -0.14087333 -0.40096533 -0.054201532 0.080658056 -0.15544897 -0.08646102 -0.05643284
0.2899809 0.114425644 0.21965492 0.2767461 -0.2670483 0.004047687 0.12071391 -0.18675339
-0.30789015 -0.15113829 -0.25517806 -0.008013004 0.12308299 -0.12741956 0.2227792 0.20438613
0.2546825 0.24887554 -0.23539403 -0.20671934 -0.31222314 -0.07383307 0.005353337 0.02784023
0.09553472 0.22429976 0.31672776 0.06490868 0.035873372 0.2528332 0.18285273 -0.27390185
-0.270852 -0.12890907 -0.16144872 -0.16075544 -0.093971245 0.050855927 -0.37337768 0.07364473
0.10810377 -0.11576985 -0.3159141 0.15642978 0.12489446 -0.25362182 0.046327636 0.050226826
0.055085342 0.14043708 0.27736637 0.097387075 0.027025633 0.3291446 0.09330355 0.08897373
-0.081792094 0.20428671 0.3083034 0.12549312 -0.117578655 0.21867524 0.1910627 -0.07253792
-0.22156459 -0.1699903 -0.23166876 0.014007089 0.026154125 -0.14697194 0.29505524 0.2020165
-0.082939096 -0.14448838 -0.1851343 0.21296044 -0.085132085 -0.23817353 0.039687015 -0.11064565
-0.35939097 -0.12962388 0.16267121 0.10610069 0.012054433 0.37548345 0.25668812 -0.0928946
0.20858738 0.1299946 -0.25127545 0.13974644 -0.121601865 -0.20460829 -0.18478695 -0.03488224
0.30999497 0.092072 0.26856035 0.18122122 -0.05682168 -0.13228847 -0.19133137 0.22140986
00000000: 3377 973d cadd 183e 1c94 943d dd64 993d
00000010: 01e4 5d3e f845 183c 7ee3 9c3d a5ff 923e
00000020: dca2 93be 1bda b6bd 422a 6cbe 5bf9 9abd
00000030: 8abe 8ebd 68c7 98be fba2 00be 7e11 d03d
00000040: 0fc1 2ebe 165e a0be ec44 583e ad93 ad3e
00000050: 8016 ac3d fe71 b1be 50c7 843c f971 bb3d
00000060: 8a98 ecbd e154 0ebe 56c1 18bd 5d83 183e
00000070: 4c39 93bd 0f8f ccbd 237d bdbe 227b 0bbe
00000080: 2596 953d 9037 53be 0e24 66be 34cd 2f3e
00000090: b7c9 ea3d 0de7 663e 1426 943e a923 1b3e
000000a0: 3aa9 c53d 8fb7 69bc 339a f4bd 6033 9ebe
000000b0: c3ba 40be ccc9 ecbd 1368 d83d b6a1 18be
000000c0: 6167 883e c356 073e c876 5d3e 0f37 a43e
000000d0: 2f24 883d 578d ac3d 1177 afbe aaab 393e
000000e0: a194 1c3e 986f 3dbe 2255 023e 21e9 043e
000000f0: 51b0 88be e72f 143e 277f b83d dc20 f33c
00000100: 29d4 4c3e 2898 d73d 834c 193e e847 213e
00000110: 1653 02be e69f de3d 079e 24be ed5e dbbe
00000120: 9a65 453d b8c6 923d 8c94 493c 647a 803e
00000130: 6f4f 58be 95f0 15be 5cec 8e3e 053b c13d
00000140: a75e a0be 2cd0 1e3e 7f66 2a3e 40b8 f33d
00000150: 5dc6 87be dae8 173c 3c3a 2e3e 0e24 c0be
00000160: a87b e0bd 792f 493e d362 873d 4ff7 b43e
00000170: b29c bb3d cbb3 703e 105e 1e3e 5046 5e3d
00000180: 4c92 40bd 5b5c 0bbd 7604 833e a044 123e
00000190: b071 afbb 31bc 97be b225 93bd e06c 8fbe
000001a0: c7f8 7bbe 5399 f6bd 01ab 17bd ba41 073d
000001b0: d022 7bbe 94c7 c0be 2b08 96bd 0786 033d
000001c0: 4541 a4be 811b 9bbd dcc6 49bd bcc7 5abd
000001d0: 2b62 f4bd ffd6 cc3b 7217 abbe 9bff 953e
000001e0: f222 33bc f58d 89be e322 24bb d1b6 3f3e
000001f0: 677e a03c f5d3 a53d 5d3d 7f3e 5470 ae3e
00000200: f0d9 a1bc a016 0b3e 3b2f 943c 0de5 a73d
00000210: be2b 463e b4ec 17be e190 25be 1e03 8e3e
00000220: f104 b5be f617 e43c c373 da3c 70da 0b3e
00000230: 575c 37be 33f7 4dbe 3b5a 353e 7691 14be
00000240: f048 97bc 1941 10be 544b cdbe 6d02 5ebd
00000250: 0d30 a53d 042e 1fbe 7a12 b1bd 1f26 67bd
00000260: 6078 943e fe57 ea3d 38ed 603e aab1 8d3e
00000270: 8eba 88be 76a2 843b db38 f73d 483c 3fbe
00000280: c7a3 9dbe ffc3 1abe b3a6 82be fa48 03bc
00000290: ef12 fc3d 467a 02be 3b20 643e 994a 513e
000002a0: bf65 823e 3bd9 7e3e 220b 71be 3cae 53be
000002b0: b6db 9fbe cb35 97bd 0c6b af3b 3211 e43c
000002c0: b5a7 c33d d6ae 653e 242a a23e d8ee 843d
000002d0: f5ef 123d 5a73 813e bf3d 3b3e dd3c 8cbe
000002e0: 1dad 8abe bd00 04be d052 25be 139d 24be
000002f0: ff73 c0bd 4e4e 503d 5c2b bfbe 0cd3 963d
00000300: 8265 dd3d be18 edbd 7ebf a1be 212f 203e
00000310: abc8 ff3d b8da 81be 0cc2 3d3d a5ba 4d3d
00000320: 2ba1 613d bdce 0f3e f702 8e3e e072 c73d
00000330: dc64 dd3c a485 a83e ee15 bf3d dc37 b63d
00000340: 9d82 a7bd 8930 513e f1d9 9d3e 4581 003e
00000350: 14cd f0bd 67ec 5f3e f1a5 433e c38e 94bd
00000360: d4e1 62be f011 2ebe 933a 6dbe fd7d 653c
00000370: 2d41 d63c d07f 16be 7b11 973e 6add 4e3e
00000380: f9db a9bd c3f4 13be d993 3dbe 4d12 5a3e
00000390: bb59 aebd c3e3 73be da8e 223d 309a e2bd
000003a0: 1802 b8be 1fbc 04be 4893 263e 524b d93d
000003b0: f57f 453c 5e3f c03e a06c 833e 863f bebd
000003c0: ee97 553e 4e1d 053e 2da7 80be b119 0f3e
000003d0: 660a f9bd d684 51be ca38 3dbe aee0 0ebd
000003e0: a9b7 9e3e 3f90 bc3d be80 893e 0e92 393e
000003f0: dabd 68bd a176 07be 5fec 43be 44b9 623e

msms.s0_conv2_1.conv.depthwise.bias f4 [64]
0.09546266 -0.32148743 -0.07625607 0.13742559 -0.13074048 -0.0456137 -0.16119576 -0.083726436
-0.009231981 -0.01235184 0.082068816 0.07073387 -0.36585042 0.07565706 -0.10342794 -0.091452375
-0.11082904 -0.36337 -0.2330919 0.15732355 0.11955997 0.17190874 0.27243936 -0.4121513
-0.089364745 -0.048663843 -0.16127838 0.20019704 -0.16333064 -0.17594737 -0.52645004 -0.028878888
-0.06288307 -0.3728029 -0.016128711 -0.10467409 -0.2315962 0.34482706 0.2857371 0.20468168
-0.04442092 -0.09794903 0.26034838 0.22934668 0.2648155 -0.04344443 0.019178985 -0.02974761
-0.6383305 0.27711406 -0.09398708 0.03577979 0.0962209 0.1570053 -0.12302297 0.26299673
0.043206517 0.14906436 0.10307325 -0.23460199 -0.08976447 0.1269781 0.20832723 -0.13190942
00000000: ed81 c33d 009a a4be 242c 9cbd 4bb9 0c3e
00000010: d5e0 05be 6ed5 3abd 8010 25be c478 abbd
00000020: bc41 17bc 5f5f 4abc b213 a83d ebdc 903d
00000030: bf50 bbbe 17f2 9a3d 07d2 d3bd 624b bbbd
00000040: 56fa e2bd a20b babe a5af 6ebe 6d19 213e
00000050: dcdb f43d d808 303e 2c7d 8b3e 7f05 d3be
00000060: dd04 b7bd bd53 47bd 2926 25be 7400 4d3e
00000070: 2640 27be 8c2b 34be 6ec5 06bf 6b93 ecbc
00000080: d7c8 80bd 06e0 bebe 5c20 84bc 5f5f d6bd
00000090: 8e27 6dbe 2c8d b03e 224c 923e 1398 513e
000000a0: b6f2 35bd 8099 c8bd 624c 853e dbd9 6a3e
000000b0: e695 873e c9f2 31bd 3f1d 9d3c 43b1 f3bc
000000c0: a169 23bf e5e1 8d3e 4c7c c0bd d48d 123d
000000d0: 770f c53d ffc5 203e 78f3 fbbd 82a7 863e
000000e0: 51f9 303d 54a4 183e 1118 d33d 813b 70be
000000f0: 6fd6 b7bd 8c06 023e bc53 553e 4313 07be

msms.s0_conv2_out.conv.weight f4 [64, 64, 1, 1]
0.45608515 0.18335828 -0.13098565 0.33228225 -0.03475232 -0.061575983 -0.21070619 0.7553302
0.007113353 0.10627522 -0.73351413 0.34325954 -0.22836195 0.515377 -0.03524115 0.6180299
0.30670506 0.07171323 0.1945173 0.6015905 0.32808915 0.4063831 0.26716962 -0.019513628
0.18318413 -0.18884544 -0.11396529 0.18677971 -0.21373129 0.22560006 0.2461693 0.3143533
0.10000823 -0.45604628 0.019203013 -0.11347075 -0.02304685 -0.3053975 0.36217898 0.015509624
-0.0665756 -0.0026524377 0.14491974 0.28479025 0.0827149 0.26782838 0.33617577 -0.21948539
0.458543 -0.16830519 0.104244865 -0.109854266 -0.08527625 -0.12197822 -0.21680604 0.4962383
-0.2377033 -0.07750337 0.6842081 0.6603519 0.09522413 0.18739027 0.10920909 -0.10243556
0.630269 0.090654805 -0.18777126 0.3686492 -0.03934282 -0.23053133 -0.6704403 0.003194199
0.007242328 -0.2796235 -0.07476802 -0.344734 -0.116606265 0.35174215 0.14974082 0.03526123
0.008319502 -0.081615195 0.005622414 0.09761299 0.28490236 -0.017348433 -0.027750082 0.18303989
0.22306308 0.09854081 -0.26352698 0.13145694 -0.24716431 0.49385002 -0.05293851 0.4664847
0.028607989 0.16450961 0.07808558 0.5955535 -0.17518325 0.2865226 0.31378224 -0.5519312
-0.28338838 -0.15712292 -0.4116191 0.5074829 -0.36547402 -0.31555846 -0.09436314 0.17278686
0.4498678 0.6865736 0.055323765 0.28728735 0.04987239 0.6666158 0.14507192 0.43421856
0.03474939 0.29099712 0.21120961 -0.076579675 -0.015318285 0.21722504 0.37498525 -0.3835481
-0.043815915 0.32171577 0.33105728 0.11271641 -0.106956415 -0.12122698 -0.04713856 0.45927587
0.47365576 0.58433926 0.004917912 0.31787136 -0.32553136 0.29115933 0.012587949 0.0949651
0.4044409 0.29422462 -0.45773783 0.33568433 0.079276465 0.58589023 -0.059819218 -0.08347528
-0.06883789 -0.39726302 0.14081496 0.15888064 0.1275314 -0.74940264 -0.290028 -0.65239733
0.20598267 0.09989211 0.1306351 -0.000825765 -0.58355 -0.32960612 0.3943378 -0.20166491
0.33264235 0.007943228 -0.005618142 -0.60937685 0.34699598 0.8309972 -0.67033184 0.51345897
0.017318074 -0.4657617 -0.6875596 0.07833114 0.10452853 0.41591832 0.089865714 -0.02469311
0.4621686 -0.00015338189 0.5377553 0.29780897 -0.1864164 0.36296636 -0.16736948 0.06277339
0.62838036 -0.12558211 0.012264722 0.36135346 -0.020068811 -0.059610754 -0.6850178 -0.19655526
-0.07894948 -0.68186796 0.06531442 -0.045265645 0.34650794 0.65426034 -0.0014522 0.29131636
-0.55932 0.14159217 0.16859554 0.1808793 0.19587104 0.026364613 0.119048536 0.43686125
0.078835994 0.37803328 0.14617087 0.27737498 0.17314155 1.004183 0.12663421 0.09624924
-0.12653036 0.12582852 0.0073782587 0.3573566 -0.005202964 0.15545684 0.41882655 0.19074023
-0.028258398 0.5361888 -0.5428542 0.3286097 -0.2598261 -0.3245039 0.5347026 0.042322353
0.48406175 0.30346617 -0.13889198 0.26177567 0.25310472 0.27628094 0.064479984 -0.38617268
0.1715497 0.14032523 0.25565055 0.004872609 0.4190829 0.14023097 0.22771446 -0.37587819
00000000: fe83 e93e 46c2 3b3e 1a21 06be e620 aa3e
00000010: 7358 0ebd 1937 7cbd 5dc3 57be 525d 413f
00000020: 2117 e93b d3a6 d93d 95c7 3bbf b7bf af3e
00000030: b7d7 69be bfef 033f 0659 10bd 3537 1e3f
00000040: 7208 9d3e 63de 923d 8b2f 473e d601 1a3f
00000050: 4dfb a73e 7211 d03e 75ca 883e 0bdb 9fbc
00000060: 9f94 3b3e b360 41be a266 e9bd 2e43 3f3e
00000070: 60dc 5abe b403 673e ce13 7c3e eaf2 a03e
00000080: 1dd1 cc3d e67e e9be a34f 9d3c 5a63 e8bd
00000090: bfcc bcbc 105d 9cbe 866f b93e 141c 7e3c
000000a0: ca58 88bd 85d4 2dbb d765 143e 07d0 913e
000000b0: 6e66 a93d cd20 893e 3b1f ac3e c7c0 60be
000000c0: 26c6 ea3e 3258 2cbe 557e d53d 46fb e0bd
000000d0: 51a5 aebd b8cf f9bd 6702 5ebe f212 fe3e
000000e0: 7e68 73be 16ba 9ebd 4328 2f3f d20c 293f
000000f0: de04 c33d 3ce3 3f3e 04a9 df3d bcc9 d1bd
00000100: 4f59 213f 3aa9 b93d 1c47 40be 97bf bc3e
00000110: f025 21bd 6810 6cbe faa1 2bbf c455 513b
00000120: 0d51 ed3b d02a 8fbe fa1f 99bd fa80 b0be
00000130: 44cf eebd 8c17 b43e a855 193e 146e 103d
00000140: 854e 083c de25 a7bd 3a3c b83b 52e9 c73d
00000150: b9de 913e 4d1e 8ebc 2454 e3bc cf6e 3b3e
00000160: a66a 643e c4cf c93d 02ed 86be a69c 063e
00000170: a418 7dbe e9d9 fc3e 0dd6 58bd 15d7 ee3e
00000180: 4d5b ea3c 3575 283e 55eb 9f3d 3276 183f
00000190: 3d63 33be 17b3 923e 11a8 a03e 5d4b 0dbf
000001a0: 4818 91be d5e4 20be bdbf d2be 66ea 013f
000001b0: 691f bbbe e190 a1be 7641 c1bd 0aef 303e
000001c0: 1355 e63e 4ac3 2f3f 2c9b 623d 5417 933e
000001d0: fe46 4c3d 55a7 2a3f bc8d 143e e551 de3e
000001e0: 6055 0e3d 93fd 943e 5547 583e ced5 9cbd
000001f0: 8bf9 7abc 3e70 5e3e 11fe bf3e 6b60 c4be
00000200: 5178 33bd eeb7 a43e 5780 a93e dcd7 e63d
00000210: f70b dbbd da45 f8bd 5d14 41bd 3526 eb3e
00000220: 0283 f23e 4297 153f 7026 a13b 09c0 a23e
00000230: 0cac a6be d612 953e af3d 4e3c 107d c23d
00000240: e112 cf3e 9ca4 963e 9d5c eabe d1de ab3e
00000250: b35b a23d e7fc 153f ff04 75bd 16f5 aabd
00000260: e1fa 8cbd 0f66 cbbe cc31 103e 9bb1 223e
00000270: 9797 023e dad8 3fbf 8d7e 94be 8303 27bf
00000280: 1fed 523e 3c94 cc3d 35c5 053e 2778 58ba
00000290: 8863 15bf 22c2 a8be a5e6 c93e 3f81 4ebe
000002a0: 1950 aa3e 5024 023c 6418 b8bb 1f00 1cbf
000002b0: 75a9 b13e 3cbc 543f de9a 2bbf 0c72 033f
000002c0: a2de 8d3c 5178 eebe e803 30bf 146c a03d
000002d0: 0e13 d63d 3ff3 d43e 840b b83d 3449 cabc
000002e0: 5da1 ec3e 23d5 20b9 55aa 093f 6b7a 983e
000002f0: f1e3 3ebe bad6 b93e e862 2bbe 568f 803d
00000300: 89dd 203f 9998 00be f9f1 483c 5203 b93e
00000310: 5967 a4bc 682a 74bd 545d 2fbf c845 49be
00000320: 44b0 a1bd e68e 2ebf 91c3 853d 7868 39bd
00000330: 7d69 b13e 9b7d 273f bf57 beba 6b27 953e
00000340: 982f 0fbf 8afd 103e 4fa4 2c3e 6c38 393e
00000350: 6b92 483e 9afa d73c b8cf f33d 47ac df3e
00000360: c474 a13d 948d c13e d1ad 153e 1804 8e3e
00000370: 054c 313e 1289 803f 66ac 013e 521e c53d
00000380: 2d91 01be 31d9 003e 52c5 f13b 72f7 b63e
00000390: a07d aabb 1430 1f3e 6f70 d63e 6851 433e
000003a0: 287e e7bc ab43 093f 7ef8 0abf 883f a83e
000003b0: ed07 85be 6025 a6be 45e2 083f 345a 2d3d
000003c0: f1d6 f73e eb5f 9b3e b339 0ebe 7607 863e
000003d0: f196 813e b274 8d3e 150e 843d 6db8 c5be
000003e0: b9aa 2f3e 6bb1 0f3e a1e4 823e 68aa 9f3b
000003f0: 0992 d63e b598 0f3e fb2d 693e 1b73 c0be

msms.s0_conv2_out.conv.bias f4 [64]
0.21229991 0.034635264 0.10879796 0.1394347 0.3587241 0.35734788 0.2953142 0.22538123
-0.027901674 0.342039 0.23602353 0.25943083 -0.0041969344 0.24842736 0.21085402 -0.0020173432
0.22594722 0.27128416 0.59989434 0.15850812 0.23827267 0.45528653 0.16881801 -0.002737922
0.26304895 0.14829414 0.15082006 -0.02256818 0.2646048 0.3564293 0.1349611 0.26625302
0.14844392 0.32619426 0.2399103 0.09580718 0.09747598 0.19203198 -0.0016683195 -0.004259863
0.09072479 0.23370329 0.28562516 -0.012819042 0.06968588 0.12383123 0.03470387 0.15691936
0.18385677 0.49936303 0.055484362 0.29351705 0.1956779 -0.01494133 0.23902915 0.20419063
0.18582724 0.44113466 -0.023422949 0.17268933 -0.022393858 0.09622991 -0.000117492506 0.29854006
00000000: 2665 593e b5dd 0d3d 77d1 de3d f8c7 0e3e
00000010: afaa b73e 4df6 b63e 6c33 973e 56ca 663e
00000020: 0d92 e4bc bc1f af3e 27b0 713e 1ed4 843e
00000030: 7086 89bb be63 7e3e 1eea 573e 6735 04bb
00000040: b55e 673e c2e5 8a3e ad92 193f f44f 223e
00000050: c0fd 733e 511b e93e a1de 2c3e b56e 33bb
00000060: 5aae 863e 6bda 173e 9370 1a3e e7e0 b8bc
00000070: 487a 873e e77d b63e 3e33 0a3e 5152 883e
00000080: af01 183e ef02 a73e 0cab 753e 8e36 c43d
00000090: 7da1 c73d 08a4 443e 83ab daba 5296 8bbb
000000a0: ebcd b93d ea4f 6f3e 763d 923e f606 52bc
000000b0: 78b7 8e3d 3a9b fd3d a525 0e3d 78af 203e
000000c0: f344 3c3e 83ac ff3e 9243 633d de47 963e
000000d0: ca5f 483e 7bcc 74bc 0fc4 743e 5917 513e
000000e0: 7f49 3e3e 67dc e13e 7ce1 bfbc 79d5 303e
000000f0: 5373 b7bc 3014 c53d 4f66 f6b8 3eda 983e

msms.s0_conv3_0.conv.depthwise.weight f4 [64, 1, 3, 3]
-0.27706185 -0.17918469 0.1516854 -0.14930508 0.01769645 -0.2250909 0.102630965 0.13463332
-0.3606543 0.24502541 -0.104630835 0.14577378 0.39446232 -0.119894944 0.08336922 0.04308183
-0.05379077 0.27802032 -0.14240277 0.05595061 0.16975647 -0.115716755 0.056497302 0.15714964
-0.24595825 0.050387014 0.35536113 -0.25905344 -0.33952433 -0.19315231 -0.2555767 -0.09211042
-0.15215157 -0.021025144 -0.17036204 0.042087816 0.22225212 0.30478066 0.02364962 0.289151
0.24072103 -0.10490388 -0.00017321801 -0.0431143 -0.15439953 -0.0039071995 -0.25111383 -0.21117556
-0.13559243 -0.27492425 -0.13969494 -0.3005414 -0.13092731 -0.18723342 -0.04444497 -0.1620802
-0.15424426 -0.11945399 -0.3950419 -0.044631146 0.01818243 -0.29539174 -0.15248433 -0.22137187
-0.05223352 0.10108013 -0.4207969 -0.20017666 -0.311088 -0.0035769064 -0.14013237 -0.80599815
0.0719972 0.09169218 -0.0974937 0.29536554 -0.007979701 -0.23113815 0.27851266 0.11031403
-0.03860144 0.17357934 -0.37864536 -0.30132452 -0.046157833 -0.089212425 -0.28168246 -0.059260763
0.093880095 -0.1276751 0.1276524 0.35695633 -0.32676715 0.12095976 0.16750644 -0.2375124
-0.05944912 0.120086774 0.11655736 0.35217166 0.25656754 -0.11227248 0.16532362 0.20233826
-0.11642962 0.22465664 0.082437135 -0.1823202 0.20958161 -0.07733333 -0.043254513 0.08293145
-0.15819272 0.21376595 0.014479204 -0.107450254 0.2992817 0.0540664 -0.29217836 -0.11509517
-0.03737848 0.055553555 0.055669285 0.06566731 0.4741296 0.030433958 -0.08855455 0.17503005
-0.36289778 0.056577355 0.16718595 -0.05905127 -0.06723009 -0.098983765 -0.12683243 0.27385694
0.21222582 0.11671736 0.09807415 -0.1389754 -0.023785612 -0.020539492 -0.24402457 0.09189348
0.32423252 -0.1150854 -0.21652745 0.027058296 -0.25348616 -0.015268979 -0.09981408 -0.22829384
0.04276216 0.053491082 0.14064541 0.060207028 -0.07229624 -0.022047784 -0.2673991 -0.29334375
0.19187492 0.13371846 -0.12620343 0.25650692 0.39877564 -0.09462532 0.015996685 0.19664909
-0.29112726 -0.10699762 0.058583833 -0.10451885 -0.06010236 -0.06939024 -0.06872536 0.039332516
-0.18116875 0.13956788 0.22693026 -0.397325 -0.033497542 -0.23192312 0.01736355 0.07635985
-0.10519339 0.003626284 0.14072452 0.2577861 0.21311824 -0.077877864 -0.27665564 -0.05102188
-0.2530761 -0.31106037 0.024524676 -0.2216947 -0.077541925 0.047892854 0.2646168 -0.09121829
0.0101838475 0.054140076 -0.12240238 -0.03306765 -0.13309044 -0.43526658 -0.12024025 0.18418401
0.102185056 0.32108602 0.025073467 -0.04102265 -0.0181712 -0.073390715 0.054170985 0.10575699
-0.22904477 0.042746108 0.060032878 -0.16060501 -0.08080858 -0.18060444 -0.21890776 -0.19693579
-0.16126171 0.30921212 0.0053638606 0.14645857 0.2118209 0.07282072 0.08630829 -0.09027433
-0.49095616 -0.329737 0.018532394 0.13529183 0.32999873 -0.114187635 0.22479388 0.25383484
-0.1384888 0.19209708 -0.08208412 0.08279244 0.27985355 0.22972272 -0.14166948 -0.24895082
-0.071019314 0.018849073 0.079457685 -0.13556372 -0.10177511 -0.156556 0.103036895 -0.22530074
00000000: 0ddb 8dbe 317c 37be 6b53 1b3e 6ee3 18be
00000010: 25f8 903c 3b7e 66be 2f30 d23d 51dd 093e
00000020: aea7 b8be f1e7 7a3e b148 d6bd b945 153e
00000030: f7f6 c93e 7b8b f5bd 7bbd aa3d 9376 303d
00000040: b653 5cbd ae58 8e3e 08d2 11be 782c 653d
00000050: a4d4 2d3e e8fc ecbd b769 673d d6eb 203e
00000060: 7bdc 7bbe 9d62 4e3d e5f1 b53e a7a2 84be
00000070: 22d6 adbe b8c9 45be f3da 82be 63a4 bcbd
00000080: 9fcd 1bbe ec3c acbc 6373 2ebe 4664 2c3d
00000090: 0f96 633e 360c 9c3e d9bc c13c 9a0b 943e
000000a0: 937f 763e d8d7 d6bd dba1 35b9 9f98 30bd
000000b0: e91a 1ebe f707 80bb fe91 80be 683e 58be
000000c0: bed8 0abe dfc2 8cbe 310c 0fbe 90e0 99be
000000d0: cf11 06be 1eba 3fbe ee0b 36bd 5af8 25be
000000e0: 35f2 1dbe 4ba4 f4bd ef42 cabe 26cf 36bd
000000f0: 52f3 943c 963d 97be da24 1cbe 4faf 62be
00000100: d1f2 55bd 1903 cf3d b172 d7be 1cfb 4cbe
00000110: ed46 9fbe 886a 6abb dc7e 0fbe e555 4ebf
00000120: 4573 933d 1cc9 bb3d c7aa c7bd 273a 973e
00000130: 4bbd 02bc 7baf 6cbe 3699 8e3e 52ec e13d
00000140: 8b1c 1ebd c8be 313e cedd c1be 3547 9abe
00000150: ff0f 3dbd 01b5 b6bd af38 90be 6abb 72bd
00000160: 3544 c03d 43bd 02be 50b7 023e fbc2 b63e
00000170: 064e a7be c0b9 f73d cf86 2b3e 7336 73be
00000180: ec80 73bd 0ef0 f53d a0b5 ee3d d84f b43e
00000190: d25c 833e 1def e5bd 984a 293e c331 4f3e
000001a0: a772 eebd 640c 663e cdd4 a83d 26b2 3abe
000001b0: 909c 563e f060 9ebd a52b 31bd f7d7 a93d
000001c0: 46fd 21be 76e5 5a3e 2f3a 6d3c e10e dcbd
000001d0: 733b 993e bb74 5d3d 6798 95be 04b7 ebbd
000001e0: 2d1a 19bd 208c 633d 7a05 643d 957c 863d
000001f0: 1dc1 f23e a350 f93c 175c b5bd 143b 333e
00000200: bdcd b9be a8bd 673d cb32 2b3e bfdf 71bd
00000210: eeaf 89bd 00b8 cabd 5ce0 01be fa36 8c3e
00000220: ba51 593e 8309 ef3d 1adb c83d 914f 0ebe
00000230: 0bda c2bc 7042 a8bc 94e1 79be a632 bc3d
00000240: ce01 a63e e5b1 ebbd 5fb9 5dbe 5ca9 dd3c
00000250: f0c8 81be bd2a 7abc 536b ccbd dcc5 69be
00000260: 6027 2f3d 7719 5b3d 5a05 103e a59b 763d
00000270: 0d10 94bd 8e9d b4bc 89e8 88be 2731 96be
00000280: dc7a 443e 7eed 083e 793b 01be e054 833e
00000290: 522c cc3e ebca c1bd 7b0b 833c 615e 493e
000002a0: a20e 95be 9121 dbbd 9af5 6f3d fb0d d6bd
000002b0: e42d 76bd 781c 8ebd e2bf 8cbd 221b 213d
000002c0: 4d84 39be e2ea 0e3e 6860 683e 2f6e cbbe
000002d0: b834 09bd 417d 6dbe 013e 8e3c 8e62 9c3d
000002e0: a26f d7bd f3a6 6d3b 171a 103e 8afc 833e
000002f0: ab3b 5a3e 6e7e 9fbd cfa5 8dbe 52fc 50bd
00000300: 3193 81be 4e43 9fbe f9e7 c83c ef03 63be
00000310: 4dce 9ebd 4c2b 443d da7b 873e a8d0 babd
00000320: 27da 263c fcc1 5d3d 19ae fabd f271 07bd
00000330: dc48 08be 43db debe 8540 f6bd bc9a 3c3e
00000340: 6646 d13d 6365 a43e df66 cd3c 5e07 28bd
00000350: c5db 94bc df4d 96bd 65e2 5d3d 1f97 d83d
00000360: b68a 6abe 8b16 2f3d 09e5 753d a475 24be
00000370: f87e a5bd 5ff0 38be 5b29 60be 89a9 49be
00000380: ca21 25be 0d51 9e3e 53c3 af3b 3cf9 153e
00000390: 94e7 583e 0823 953d 67c2 b03d bfe1 b8bd
000003a0: 9b5e fbbe 4ad3 a8be 3fd1 973c f189 0a3e
000003b0: 98f5 a83e 35db e9bd 5e30 663e a4f6 813e
000003c0: 02d0 0dbe 19b5 443e b81b a8bd 158f a93d
000003d0: f748 8f3e 6f3c 6b3e ce11 11be f7ec 7ebe
000003e0: 9372 91bd 5f69 9a3c b6ba a23d 37d1 0abe
000003f0: 786f d0bd 3750 20be 0205 d33d 3db5 66be

msms.s0_conv3_0.conv.depthwise.bias f4 [64]
-0.038182992 0.022188148 -0.15663029 -0.1489025 0.018431036 -0.23260209 0.04802119 0.14030561
-0.093003705 0.20742309 0.34634304 -0.09751919 -0.08202996 0.26327348 0.21385655 -0.06520214
-0.07692806 0.08553325 -0.04052481 0.08451902 0.1793363 0.08127706 -0.03760641 -0.084520146
-0.06476757 -0.39937595 -0.15971866 -0.02038059 0.064880095 0.31092876 0.17045647 0.21078382
0.13313907 -0.07363071 0.06881188 -0.12182078 0.3738369 -0.016288713 0.04005394 0.15195838
-0.020410558 -0.004351874 0.03777909 -0.13396621 0.08341125 -0.12300334 0.049174182 0.14892633
0.29325682 -0.01322379 -0.13083386 -0.09013072 0.02314576 0.076548785 0.21020295 0.15381646
-0.06359688 -0.17999704 0.05416801 -0.14639637 0.022875411 -0.04538534 0.06911602 -0.1292035
00000000: c565 1cbd ebc3 b53c b163 20be e679 18be
00000010: affc 963c 3e2f 6ebe deb1 443d 46ac 0f3e
00000020: ba78 bebd b866 543e e053 b13e 24b8 c7bd
00000030: 53ff a7bd c8cb 863e 36fd 5a3e b388 85bd
00000040: 758c 9dbd 0e2c af3d 58fd 25bd 4f18 ad3d
00000050: efa3 373e 9674 a63d 2e09 1abd e618 adbd
00000060: dca4 84bd 017b ccbe 4a8d 23be 32f5 a6bc
00000070: dbdf 843d 0e32 9f3e 248c 2e3e b7d7 573e
00000080: 9c55 083e b3cb 96bd 3eed 8c3d 2c7d f9bd
00000090: 8d67 bf3e e86f 85bc 9a0f 243d fa9a 1b3e
000000a0: 0b34 a7bc 2a9a 8ebb 3fbe 1a3d 702e 09be
000000b0: 84d3 aa3d 2de9 fbbd de6a 493d 2580 183e
000000c0: c225 963e 98a8 58bc 50f9 05be 7496 b8bd
000000d0: 2d9c bd3c 9cc5 9c3d 713f 573e 1082 1d3e
000000e0: 153f 82bd 2551 38be 46df 5d3d eee8 15be
000000f0: 3765 bb3c fae5 39bd b38c 8d3d ec4d 04be
